…
f, in_c, n_classes): super().__init__() self.conv1 = nn.Conv2d(in_c, 32, kernel_size=3, stride=1, padding=1) self.bn1 = nn.BatchNorm2d(32) self.conv2 = nn.Conv2d(32, 64, kernel_size=3, stride=1, padding=1) self.bn2 = nn.BatchNorm2d(32) self.fc1 = nn.Linear(32 * 28 * 28, 1024) self.fc2 = nn.Linear(1024, n_classes) def forward(self, x): x = self.conv1(x) x = self.bn1(x) x = F.relu(x) x = self.conv2(x) x = self.bn2(x) x = F.relu(x) x = x.view(x.size(0), -1) # flat x = self.fc1(x) x = F.sigmoid(x) x = self.fc2(x) return x 12model = MyCNNClassifier(1, 10)print(model) 12345678MyCNNClassifier( (conv1): Conv2d(1, 32, kernel_size=(3, 3), stride=(1, 1), padding=(1, 1)) (bn1): BatchNorm2d(32, eps=1e-05, momentum=0.1, affine=True, track_running_stats=True) (conv2): Conv2d(32, 64, kernel_size=(3, 3), stride=(1, 1), padding=(1, 1)) (bn2): BatchNorm2d(32, eps=1e-05, momentum=0.1, affine=True, track_running_stats=True) (fc1): Linear(in_features=25088, out_features=1024, bias=True) (fc2): Linear(in_features=1024, out_features=10, bias=True)) 这是一个非常简单的分类器，其编码部分使用两层3x3 convs + batchnorm + relu和一个带有两个线性层的解码部分。 如果您不是PyTorch的新手，您可能以前看过这种类型的编码，但有两个问题。如果我们想要添加一个图层，我们必须在init和forward函数中再次编写大量代码。 此外，如果我们有一些我们想要在另一个模型中使用的公共块，例如 3x3 conv + batchnorm + relu，我们必须再写一次。 Sequential：堆叠和合并图层 Sequential是一个模块的容器，可以堆叠在一起并同时运行。你可以注意到我们必须将自己的一切存储起来。 我们可以使用Sequential来改进我们的代码。 1234567891011121314151617181920212223
…
_() self.conv_block1 = nn.Sequential( nn.Conv2d(in_c, 32, kernel_size=3, stride=1, padding=1), nn.BatchNorm2d(32), nn.ReLU() ) self.conv_block2 = nn.Sequential( nn.Conv2d(32, 64, kernel_size=3, stride=1, padding=1), nn.BatchNorm2d(64), nn.ReLU() ) self.decoder = nn.Sequential( nn.Linear(32 * 28 * 28, 1024), nn.Sigmoid(), nn.Linear(1024, n_classes) ) def forward(self, x): x = self.conv_block1(x) x = self.conv_block2(x) x = x.view(x.size(0), -1) # flat x = self.decoder(x) return x 12model = MyCNNClassifier(1, 10)print(model) 1234567891011121314151617MyCNNClassifier( (conv_block1): Sequential( (0): Conv2d(1, 32, kernel_size=(3, 3), stride=(1, 1), padding=(1, 1)) (1): BatchNorm2d(32, eps=1e-05, momentum=0.1, affine=True, track_running_stats=True) (2): ReLU() ) (conv_block2): Sequential( (0): Conv2d(32, 64, kernel_size=(3, 3), stride=(1, 1), padding=(1, 1)) (1): BatchNorm2d(64, eps=1e-05, momentum=0.1, affine=True, track_running_stats=True) (2): ReLU() ) (decoder): Sequential( (0): Linear(in_features=25088, out_features=1024, bias=True) (1): Sigmoid() (2): Linear(in_features=1024, out_features=10, bias=True) )) 你觉得好多了？您是否注意到conv_block1和conv_block2看起来几乎相同？ 我们可以创建一个重新生成nn.Sequential的函数来简化代码！ 123456def conv_block(in_f, out_f, *args, **kwargs): return nn.Sequential( nn.Conv2d(in_f, out_f, *args, **kwargs), nn.BatchNorm2d(out_f), nn.ReLU() ) 然后我们可以在我们的模块中调用此函数 123456789101112131415161718192021222324class MyCNNClassifier(nn.Module): def __init__(self, in_c, n_classes): super().__init__() self.conv_block1 = conv_block(in_c, 32, kernel_size=3, padding=1) self.conv_block2 = conv_block(32, 64, kernel_size=3, padding=1) self.decoder = nn.Sequential( nn.Linear(32 * 28 * 28, 1024), nn.Sigmoid(), nn.Linear(1024, n_classes) ) def forward(self, x): x = self.conv_block1(x) x = self.conv_block2(x) x = x.view(x.size(0), -1) # flat x = self.decoder(x) return x 12model = MyCNNClassifier(1, 10)print(model) 1234567891011121314151617MyCNNClassifier( (conv_block1): Sequential( (0): Conv2d(1, 32, kernel_size=(3, 3), stride=(1, 1), padding=(1, 1)) (1): BatchNorm2d(32, eps=1e-05, momentum=0.1, affine=True, track_running_stats=True) (2): ReLU() ) (conv_block2): Sequential( (0): Conv2d(32, 64, kernel_size=(3, 3), stride=(1, 1), padding=(1, 1)) (1): BatchNorm2d(64, eps=1e-05, momentum=0.1, affine=True, track_running_stats=True) (2): ReLU() ) (decoder): Sequential( (0): Linear(in_features=25088, out_features=1024, bias=True) (1): Sigmoid() (2): Linear(in_features=1024, out_features=10, bias=True) )) Even cleaner! Still conv_block1 and conv_block2 are almost the same! We can merge them using nn.Sequential 123456789101112131415161718192021222324class MyCNNClassifier(nn.Module): def __init__(self, in_c, n_classes): super().__init__() self.encoder = nn.Sequential( conv_block(in_c, 32, kernel_size=3, padding=1), conv_block(32, 64, kernel_size=3, padding=1) ) self.decoder = nn.Sequential( nn.Linear(32 * 28 * 28, 1024), nn.Sigmoid(), nn.Linear(1024, n_classes) ) def forward(self, x): x = self.encoder(x) x = x.view(x.size(0), -1) # flat x = self.decoder(x) return x 12model = MyCNNClassifier(1, 10)print(model) 12345678910111213141516171819MyCNNClassifier( (encoder): Sequential( (0): Sequential( (0): Conv2d(1, 32, kernel_size=(3, 3), stride=(1, 1), padding=(1, 1)) (1): BatchNorm2d(32, eps=1e-05, momentum=0.1, affine=True, track_running_stats=True) (2): ReLU() ) (1): Sequential( (0): Conv2d(32, 64, kernel_size=(3, 3), stride=(1, 1), padding=(1, 1)) (1): BatchNorm2d(64, eps=1e-05, momentum=0.1, affine=True, track_running_stats=True) (2): ReLU() ) ) (decoder): Sequential( (0): Linear(in_features=25088, out_features=1024, bias=True) (1): Sigmoid() (2): Linear(in_features=1024, out_features=10, bias=True) )) self.encoder now holds booth conv_block. We have decoupled logic for our model and make it easier to read and reuse. Our conv_block function can be imported and used in another model. Dynamic Sequential: create multiple layers at onceWhat if we can to add a new layers in self.encoder, hardcoded them is not convinient: 1234567self.encoder = nn.Sequen
…
): def __init__(self, in_c, n_classes): super().__init__() self.enc_sizes = [in_c, 32, 64] conv_blocks = [conv_block(in_f, out_f, kernel_size=3, padding=1) for in_f, out_f in zip(self.enc_sizes, self.enc_sizes[1:])] self.encoder = nn.Sequential(*conv_blocks) self.decoder = nn.Sequential( nn.Linear(32 * 28 * 28, 1024), nn.Sigmoid(), nn.Linear(1024, n_classes) ) def forward(self, x): x = self.encoder(x) x = x.view(x.size(0), -1) # flat x = self.decoder(x) return x 12model = MyCNNClassifier(1, 10)print(model) 12345678910111213141516171819MyCNNClassifier( (encoder): Sequential( (0): Sequential( (0): Conv2d(1, 32, kernel_size=(3, 3), stride=(1, 1), padding=(1, 1)) (1): BatchNorm2d(32, eps=1e-05, momentum=0.1, affine=True, track_running_stats=True) (2): ReLU() ) (1): Sequential( (0): Conv2d(32, 64, kernel_size=(3, 3), stride=(1, 1), padding=(1, 1)) (1): BatchNorm2d(64, eps=1e-05, momentum=0.1, affine=True, track_running_stats=True) (2): ReLU() ) ) (decoder): Sequential( (0): Linear(in_features=25088, out_features=1024, bias=True) (1): Sigmoid() (2): Linear(in_features=1024, out_features=10, bias=True) )) Let’s break it down. We created an array self.enc_sizes that holds the sizes of our encoder. Then we create an array conv_blocks by iterating the sizes. Since we have to give booth a in size and an outsize for each layer we ziped the size’array with itself by shifting it by one. Just to be clear, take a look at the following example: 1234sizes = [1,
…
n_classes): super().__init__() self.enc_sizes = [in_c, *enc_sizes] conv_blokcs = [conv_block(in_f, out_f, kernel_size=3, padding=1) for in_f, out_f in zip(self.enc_sizes, self.enc_sizes[1:])] self.encoder = nn.Sequential(*conv_blokcs) self.decoder = nn.Sequential( nn.Linear(32 * 28 * 28, 1024), nn.Sigmoid(), nn.Linear(1024, n_classes) ) def forward(self, x): x = self.encoder(x) x = x.view(x.size(0), -1) # flat x = self.decoder(x) return x 12model = MyCNNClassifier(1, [32,64, 128], 10)print(model) 123456789101112131415161718192021222324MyCNNClassifier( (encoder): Sequential( (0): Sequential( (0): Conv2d(1, 32, kernel_size=(3, 3), stride=(1, 1), padding=(1, 1)) (1): BatchNorm2d(32, eps=1e-05, momentum=0.1, affine=True, track_running_stats=True) (2): ReLU() ) (1): Sequential( (0): Conv2d(32, 64, kernel_size=(3, 3), stride=(1, 1), padding=(1, 1)) (1): BatchNorm2d(64, eps=1e-05, momentum=0.1, affine=True, track_running_stats=True) (2): ReLU() ) (2): Sequential( (0): Conv2d(64, 128, kernel_size=(3, 3), stride=(1, 1), padding=(1, 1)) (1): BatchNorm2d(128, eps=1e-05, momentum=0.1, affine=True, track_running_stats=True) (2): ReLU() ) ) (decoder): Sequential( (0): Linear(in_features=25088, out_features=1024, bias=True) (1): Sigmoid() (2): Linear(in_features=1024, out_features=10, bias=True) )) We can do the same for the decoder part 12345678910111213141516171819202122232425262728293031323334def dec_block(in_f, out_f): return nn.Sequential( nn.Linear(in_f, out_f), nn.Sigmoid() )class MyCNNClassifier(nn.Module): def __init__(self, in_c, enc_sizes, dec_sizes, n_classes): super().__init__() self.enc_sizes = [in_c, *enc_sizes] self.dec_sizes =
…
 out_f, kernel_size=3, padding=1) for in_f, out_f in zip(self.enc_sizes, self.enc_sizes[1:])] self.encoder = nn.Sequential(*conv_blokcs) dec_blocks = [dec_block(in_f, out_f) for in_f, out_f in zip(self.dec_sizes, self.dec_sizes[1:])] self.decoder = nn.Sequential(*dec_blocks) self.last = nn.Linear(self.dec_sizes[-1], n_classes) def forward(self, x): x = self.encoder(x) x = x.view(x.size(0), -1) # flat x = self.decoder(x) return x 12model = MyCNNClassifier(1, [32,64], [1024, 512], 10)print(model) 12345678910111213141516171819202122232425MyCNNClassifier( (encoder): Sequential( (0): Sequential( (0): Conv2d(1, 32, kernel_size=(3, 3), stride=(1, 1), padding=(1, 1)) (1): BatchNorm2d(32, eps=1e-05, momentum=0.1, affine=True, track_running_stats=True) (2): ReLU() ) (1): Sequential( (0): Conv2d(32, 64, kernel_size=(3, 3), stride=(1, 1), padding=(1, 1)) (1): BatchNorm2d(64, eps=1e-05, momentum=0.1, affine=True, track_running_stats=True) (2): ReLU() ) ) (decoder): Sequential( (0): Sequential( (0): Linear(in_features=25088, out_features=1024, bias=True) (1): Sigmoid() ) (1): Sequential( (0): Linear(in_features=1024, out_features=512, bias=True) (1): Sigmoid() ) ) (last): Linear(in_features=512, out_features=10, bias=True)) We followed the same pattern, we create a new block for the decoding part, linear + sigmoid, and we pass an array with the sizes. We had to add a self.last since we do not want to activate the output Now, we can even break down our model in two! Encoder + Decoder 1234567891011121314151617181920212223242526272829303132333435363738class MyEncoder(nn.Modu
…
f, x): return self.dec_blocks() class MyCNNClassifier(nn.Module): def __init__(self, in_c, enc_sizes, dec_sizes, n_classes): super().__init__() self.enc_sizes = [in_c, *enc_sizes] self.dec_sizes = [32 * 28 * 28, *dec_sizes] self.encoder = MyEncoder(self.enc_sizes) self.decoder = MyDecoder(dec_sizes, n_classes) def forward(self, x): x = self.encoder(x) x = x.flatten(1) # flat x = self.decoder(x) return x 12model = MyCNNClassifier(1, [32,64], [1024, 512], 10)print(model) 12345678910111213141516171819202122232425MyCNNClassifier( (encoder): MyEncoder( (conv_blokcs): Sequential( (0): Sequential( (0): Conv2d(1, 32, kernel_size=(3, 3), stride=(1, 1), padding=(1, 1)) (1): BatchNorm2d(32, eps=1e-05, momentum=0.1, affine=True, track_running_stats=True) (2): ReLU() ) (1): Sequential( (0): Conv2d(32, 64, kernel_size=(3, 3), stride=(1, 1), padding=(1, 1)) (1): BatchNorm2d(64, eps=1e-05, momentum=0.1, affine=True, track_running_stats=True) (2): ReLU() ) ) ) (decoder): MyDecoder( (dec_blocks): Sequential( (0): Sequential( (0): Linear(in_features=1024, out_features=512, bias=True) (1): Sigmoid() ) ) (last): Linear(in_features=512, out_features=10, bias=True) )) Be aware that MyEncoder and MyDecoder could also be functions that returns a nn.Sequential. I prefer to use the first pattern for models and the second for building blocks. By diving our module into submodules it is easier to share the code, debug it and test it. ModuleList : when we need to iterateModuleList allows you to store Module as a list. It 
…
e): def __init__(self, in_c, enc_sizes, dec_sizes, n_classes, activation='relu'): super().__init__() self.enc_sizes = [in_c, *enc_sizes] self.dec_sizes = [32 * 28 * 28, *dec_sizes] self.encoder = MyEncoder(self.enc_sizes, activation=activation) self.decoder = MyDecoder(dec_sizes, n_classes) def forward(self, x): x = self.encoder(x) x = x.flatten(1) # flat x = self.decoder(x) return x 12model = MyCNNClassifier(1, [32,64], [1024, 512], 10, activation='lrelu')print(model) 12345678910111213141516171819202122232425MyCNNClassifier( (encoder): MyEncoder( (conv_blokcs): Sequential( (0): Sequential( (0): Conv2d(1, 32, kernel_size=(3, 3), stride=(1, 1), padding=(1, 1)) (1): BatchNorm2d(32, eps=1e-05, momentum=0.1, affine=True, track_running_stats=True) (2): LeakyReLU(negative_slope=0.01) ) (1): Sequential( (0): Conv2d(32, 64, kernel_size=(3, 3), stride=(1, 1), padding=(1, 1)) (1): BatchNorm2d(64, eps=1e-05, momentum=0.1, affine=True, track_running_stats=True) (2): LeakyReLU(negative_slope=0.01) ) ) ) (decoder): MyDecoder( (dec_blocks): Sequential( (0): Sequential( (0): Linear(in_features=1024, out_features=512, bias=True) (1): Sigmoid() ) ) (last): Linear(in_features=512, out_features=10, bias=True) )) ConclusionSo, in summary. Use Module when you have a big block compose of multiple smaller blocks Use Sequential when you want to create a small block from layers Use ModuleList when you need to iterate through some layers or building blocks and do something Use ModuleDict when you need to parametise some blocks of your model, for example an activati
…
